HW1/tests/sgd/sgd_updated_weights.npy (npy, 62848 bytes, 1 tensors)

array f8 [784, 10]
000000 c2 43 0d ca cc 30 61 3f d6 3f 64 42 0c 0e 2f 3f
       0.002098464945824636 0.00023692989015744345
000010 67 4e 50 21 a3 28 56 3f fc 5c 85 c9 fb 0e 48 3f
       0.001352462107438246 0.000734208052601298
000020 99 53 90 56 d4 84 42 3f b0 5e ff 7d d6 8b 4e bf
       0.0005651509101222029 -0.00093219731570123
000030 c7 b6 7b 17 98 c0 4d 3f ee ba 3e 48 b0 4f 32 3f
       0.0009079687724502177 0.0002794080139620199
000040 1d ff 0b 32 b2 5f 5e bf c0 76 88 85 4a 36 46 bf
       -0.0018538704100023514 -0.0006778587222162277
000050 65 7c c5 97 67 94 19 3f 63 e7 e5 2f 00 b7 51 3f
       9.757883339521626e-05 0.0010812284304777201
000060 3d 4c f4 9f 16 1a 40 bf 0d da 5a f3 5a 7f 42 3f
       -0.0004913912270317966 0.0005644983381987726
000070 d8 96 13 e8 56 56 33 bf c7 1b 1b a6 b6 fe 38 3f
       -0.0002950632261459036 0.0003813930435225235
000080 39 c4 ff 67 3c b3 2f bf d0 a4 14 f5 91 b6 fd be
       -0.00024185287838876678 -2.8336681969030897e-05
000090 8f 60 93 27 d6 42 44 3f c4 70 75 58 e7 2a 48 3f
       0.0006183190991136 0.0007375363938240333
0000a0 14 b2 2e 35 bc ab 47 bf 72 6a 75 37 04 07 40 3f
       -0.0007223767264484282 0.0004891176785507113
0000b0 cb e7 a6 04 6b dd 3d 3f 10 ee f5 09 8e f7 42 bf
       0.00045570242641767834 -0.0005788272427901826
0000c0 d7 98 e4 0c 64 05 4c 3f 0b 8a a5 ae 84 6d 56 bf
       0.0008551348235286371 -0.001368884632562686
0000d0 c3 2e 0f e4 70 5b 55 3f cd ab f9 30 37 84 40 bf
       0.0013035395097515258 -0.0005040425766770163
0000e0 e4 d1 f2 71 e4 9c 40 bf 73 98 88 08 50 e3 40 3f
       -0.0005069842772145697 0.0005153790271534966
0000f0 7f 86 b3 94 bb 09 5d bf bb 4c 66 58 d6 e8 4a bf
       -0.0017723399967554396 -0.0008212133987392159
000100 6c a5 fb 4c b0 cc ef 3e e7 27 d8 21 1b 4f 3a 3f
       1.5163214271268341e-05 0.0004014435997708996
000110 d2 59 33 35 ee 2a 42 3f 06 3a 8e 8f de 11 36 bf
       0.0005544341205688203 -0.00033675845730210573
000120 0f 6e ec 0b 98 a6 09 3f 8d c2 72 e7 ce 0b 25 bf
       4.892493733718247e-05 -0.0001605691975093037
000130 70 53 d2 61 bc b3 50 bf 5b e8 56 df 68 1c 42 3f
       -0.0010194148701760629 0.0005527031013834548
000140 22 f2 3e 4b b5 23 4b 3f c5 03 0e 9d 9e 09 53 3f
       0.0008282313560737423 0.0011619614562905372
000150 9a 57 85 3e ef 35 54 bf 46 29 1a cc dc 91 3b 3f
       -0.0012335621232373085 0.000420681386551398
000160 be 0a cc 7d 23 cd 54 3f 50 a5 70 78 18 f0 2c bf
       0.0012696119876528934 -0.00022077845298555188
000170 ea a0 c8 33 76 0d 4a 3f 3a 9a a3 8c 99 a8 4f 3f
       0.0007950617942400738 0.0009661435845174711
000180 b2 8e 8e b9 cf 85 68 3f 46 54 96 1f 27 0b 0a bf
       0.00299349375969079 -4.967415948013052e-05
000190 f1 cb b4 94 8b c0 6a bf c8 0c 7f 57 85 e1 41 bf
       -0.0032656408490310197 -0.0005456830103799598
0001a0 54 69 1e 4c 3b b6 41 bf ca 63 a3 8e b0 46 50 bf
       -0.0005405225312984743 -0.000993416232225141
0001b0 15 c1 31 43 c5 72 2b 3f cc d9 ba 40 53 2d 54 bf
       0.00020941408147080094 -0.0012315094963192162
0001c0 6b a5 53 f1 71 1a 33 bf 3f 02 d5 bc f3 f5 3b 3f
       -0.00029149324229978704 0.0004266471922456417
0001d0 a2 55 a0 97 d7 46 50 3f f5 b0 43 ed 5f ca 47 3f
       0.000993452586503942 0.0007260292427680159
0001e0 fb 6f af 5f 63 b0 4d 3f 49 c3 c4 64 d1 16 54 3f
       0.0009060368751039322 0.0012261433467523777
0001f0 8c 1e c5 b2 9e 39 41 3f 92 98 57 fe ca 57 54 bf
       0.00052566765729352 -0.001241634593833339
000200 96 6f a9 c8 82 ff 33 bf c0 8f 08 d9 90 ea 0d 3f
       -0.00030514662708979714 5.706076183667431e-05
000210 64 ea a3 82 12 a0 48 bf 22 81 2b 91 23 a8 38 3f
       -0.0007515039808646093 0.00037623279892608403
000220 90 ea f6 93 7a 4f 02 bf d0 d7 2f 03 ab 28 17 3f
       -3.4924438746715696e-05 8.834403779175927e-05
000230 60 8f 20 9e 5f d0 26 3f 9b e6 93 7c 39 56 11 3f
       0.0001740566941076339 6.613469954066602e-05
000240 5f 39 02 85 b3 ec 02 bf 04 1b 5e 0c d1 c0 52 3f
       -3.60958371184879e-05 0.0011446038710986603
000250 b5 64 3b a8 32 75 3e 3f 2d 88 ff 05 a3 70 62 3f
       0.000464749209852021 0.002250975041520517
000260 d0 74 cd 75 52 32 53 3f 47 bf 1f 9c 30 30 46 bf
       0.0011716656947194266 -0.0006771314003781525
000270 5b ee c0 d3 2c 10 52 3f 14 93 27 53 0b 90 60 3f
       0.0011024892583141519 0.002021810644907149
000280 a1 91 41 30 0a c6 44 3f 06 3a 0b c9 ba d4 53 bf
       0.0006339597462213139 -0.0012103866649116903
000290 2c 93 77 21 36 1c 5a 3f cc 1e 88 b0 cc 60 47 3f
       0.001593640195886435 0.0007134437046838137
0002a0 a0 db 87 ab c7 76 3d bf f4 9b da 8e 19 a2 53 bf
       -0.00044958472020034147 -0.0011983155813284326
0002b0 2a 20 7a 68 ab e9 6a bf a2 7a d2 74 fc b0 5e bf
       -0.003285250455352458 -0.0018732514757073067
0002c0 ba 98 c4 3f eb 40 53 3f e8 39 f7 17 99 1b 4e bf
       0.001175145850604005 -0.0009188172843382332
0002d0 99 fb 20 8f d4 3d 38 3f e2 4b 3f ef d6 79 35 3f
       0.00036989631110267426 0.00032769677568217196
0002e0 fd 6e 3f 94 00 6e 5a 3f 83 b3 f1 9c ac ba 26 3f
       0.0016131406455234803 0.0001734100064568999
0002f0 db 9c d5 d1 9e 94 53 3f 31 dd 4f 29 aa a8 53 bf
       0.0011951018307970105 -0.0011998807651688143
000300 0d 09 c9 c9 de fc 4e 3f 16 68 16 ca 7d 8a 45 bf
       0.0009456718285678914 -0.0006573785978389892
000310 e1 9f 6e 69 ba f6 f5 3e 83 ef 81 f7 a9 a0 58 3f
       2.0946294707307917e-05 0.0015031490165986212
000320 96 74 24 0d f7 d8 3e bf 0a 24 55 ad 69 55 40 3f
       -0.00047069579626841365 0.0004984632493371121
000330 d6 1b 6c a9 d0 a0 5d 3f d5 1a 92 fe d0 37 06 3f
       0.001808360835356506 4.237753439278116e-05
000340 2e ce 98 0c 1b 87 3b 3f 9b 34 ce c2 fb dc 4e bf
       0.0004200402296163666 -0.0009418706227834085
000350 50 c8 53 fd fb df 3b bf fc 9d 06 3d de c2 47 3f
       -0.0004253378113637839 0.000725134386859005
000360 45 51 b4 18 cf 88 5d 3f cc 9a 85 93 b5 59 29 3f
       0.0018026373316547145 0.00019340840823219572
000370 41 c4 f2 40 9b 26 37 3f ee 3c 9d 5c 4f 74 47 3f
       0.0003532532727588724 0.0007157695301688563
000380 c2 62 ce 51 f2 53 30 3f 00 0c 84 9b 92 07 56 3f
       0.00024914422993442206 0.0013445789064128189
000390 db 52 14 a1 f8 86 53 bf b6 20 1d 2e f2 c1 57 3f
       -0.0011918476123515185 0.0014500489273406142
0003a0 ef 26 51 67 18 85 53 3f f2 b8 44 5e ca 7b 4a bf
       0.0011914003673773562 -0.0008082140089180885
0003b0 00 b3 b6 97 49 0f 31 bf 68 4f 1a 3e 7d 9a 4c bf
       -0.0002603106183538956 -0.0008729087387160219
0003c0 be a5 06 ed 37 07 42 3f af de a7 de 41 48 56 3f
       0.0005501769137953789 0.0013600009211795318
0003d0 47 b4 a0 32 e3 5b 58 bf 04 82 a8 6d 65 a8 51 bf
       -0.0014867514351053644 -0.0010777464400534295
0003e0 eb 60 08 4c 8d f1 4f 3f 7a 01 67 6f 83 19 39 3f
       0.0009748401572009768 0.0003829904448160653
0003f0 48 77 d5 ca 10 a4 47 3f ee 79 e7 c1 20 dc 22 3f
       0.0007214624398945513 0.00014388942595551464
000400 3e 44 9d e0 3b 86 44 3f ce ca d1 62 15 d9 42 bf
       0.0006263534898868284 -0.0005751947807211778
000410 63 92 80 f1 88 e5 4d bf 93 ec ea 44 98 b7 38 bf
       -0.0009123724621572068 -0.0003771540404319897
000420 b4 1b a1 e8 51 fb 14 bf 6b ab 56 1a c0 50 5b bf
       -8.00389044864753e-05 -0.0016672016148315493
000430 2d f0 6b dd c4 50 38 3f 82 42 4f 64 9c aa 38 3f
       0.00037102514526998997 0.00037638013992328395
000440 37 ed 68 e2 b4 ab 54 3f 39 cd 65 68 bb 44 3a 3f
       0.0012616411637641053 0.00040082526574921094
000450 9e 12 2a 07 bc b2 31 3f 9f b2 69 22 ce b7 4a bf
       0.0002700528195094617 -0.0008153683200596457
000460 5d 30 31 9f 21 10 62 bf 32 4e 88 79 52 5e 35 bf
       -0.0022049576450964684 -0.0003260566095672795
000470 ae 6c eb 29 81 c1 50 3f 2e 40 19 67 60 e8 56 bf
       0.0010226975788814418 -0.0013981763298893768
000480 8f 20 83 2a 82 c8 31 bf 2b 54 d7 6f 03 88 33 3f
       -0.00027135064966588794 0.0002980240240877975
000490 53 8e 97 56 02 06 4f 3f 04 3b 8e 03 ee 6c 41 bf
       0.0009467612664448378 -0.0005317842652504405
0004a0 94 47 8b 51 e9 ff 07 3f 04 90 46 67 62 4f 4c 3f
       4.577570706988592e-05 0.0008639555440379536
0004b0 2b 5e 7f 0d d8 7f 4e 3f 00 d4 5f d3 28 ca d8 be
       0.0009307675309128729 -5.910321581471985e-06
0004c0 1e 44 a7 4c 66 dc 4a bf 25 26 33 71 29 10 64 bf
       -0.0008197307118341689 -0.002449112836619321
0004d0 9c 3e b2 94 dd 96 45 3f 8f 78 b9 de 9f 8e 54 bf
       0.0006588537156790478 -0.0012547074537887814
0004e0 c0 44 c8 93 f0 23 e0 be 9e 5a 01 40 94 d0 49 bf
       -7.69633754152605e-06 -0.0007878040196470264
0004f0 79 db 6b c5 88 bf 3b 3f 04 40 18 52 b5 ff 58 3f
       0.00042340363636077894 0.0015258093557157801
000500 7f 47 0f 07 fa f4 39 bf 0e 52 a2 59 98 ea 4c 3f
       -0.0003960714739693546 0.0008824581048139672
000510 af 45 34 ad f9 ef 30 bf ee bf 3f 04 d6 31 5f 3f
       -0.00025844426745987975 0.0019039716726147976
000520 f5 2e 34 59 8f 20 4a bf c4 ea fa 2a d3 51 50 bf
       -0.0007973384803405525 -0.0009960710703313261
000530 cb 68 d9 3b 3f b0 02 bf c8 7f 0d 3b 5f 0c 4f bf
       -3.564541792107494e-05 -0.0009475197785881956
000540 d2 9c 25 8a 3c 7f 31 3f 80 89 e4 d6 0f b9 43 bf
       0.0002669832994314894 -0.0006018950787487903
000550 ff f8 c8 77 53 57 56 bf 63 ab da 99 51 a9 30 bf
       -0.001363593589431 -0.0002542328091787364
000560 85 9b 2f aa 1a f2 30 bf 3f 75 54 66 a3 84 47 3f
       -0.00025857115741561464 0.0007177160120225636
000570 c9 8d 06 22 42 76 54 bf 60 ca 12 28 d6 ed 3a 3f
       -0.0012488981084083242 0.00041090467864105494
000580 11 5b 40 65 94 33 2a 3f 7e 9c ad 97 bb 61 5c bf
       0.00019990145176570402 -0.0017322856862962695
000590 be 21 38 3f 05 a0 44 bf e4 9e b4 41 d8 24 5c bf
       -0.0006294274921297344 -0.0017177688485591697
0005a0 bf b4 6a 74 bd 70 62 3f bc a2 ac 24 de c5 2f bf
       0.002251024273695806 -0.00024240814885813876
0005b0 1d 46 7c dd ff 7b 3c bf 5d 3b 6f 02 87 98 3f 3f
       -0.0004346370383113434 0.0004821138012944171
0005c0 9e 4a 0d ba 40 e9 39 3f f8 76 8e 1e a5 fe fe 3e
       0.0003953726791695952 2.9558856030945595e-05
0005d0 87 ab 29 5c f4 10 35 3f ca cf 1f 84 57 00 54 3f
       0.00032144513912751204 0.0012207846307292652
0005e0 24 c5 a2 b7 79 36 e8 be 36 3b 37 e9 0f 25 5c 3f
       -1.1545560245048723e-05 0.001717820680699323
0005f0 a9 0b 24 3c f0 c9 49 bf c7 0f ed fc 1d 34 51 bf
       -0.0007870123884291441 -0.0010500233508574529
000600 a1 f3 df 49 38 a8 54 bf f4 07 2b 2e f5 8b 40 bf
       -0.0012608098691082386 -0.0005049655122422157
000610 83 e2 a7 b1 92 7f 24 3f be 50 0b d7 80 17 34 bf
       0.00015638986299372848 -0.00030657668598378293
000620 cd 3e df 76 2c 66 39 3f 7d 09 67 a2 cf 20 57 bf
       0.0003875597529914121 -0.001411631362871007
000630 9e 6a 78 42 32 28 1f bf f3 3c 25 2d 91 55 60 3f
       -0.00011885458717878847 0.0019939265704703667
000640 c4 40 c7 36 f5 9b 52 3f d2 85 93 20 56 76 10 3f
       0.0011358160655739339 6.27985065366967e-05
000650 d2 ca 04 c1 8c 49 15 bf c7 9d 95 1c 14 b5 4f bf
       -8.120462030517951e-05 -0.0009676311685042287
000660 80 51 87 03 5a 51 0d bf 48 4b 36 39 bc 61 40 3f
       -5.591922712580837e-05 0.0004999321994766182
000670 6e 75 62 44 2a 8e 30 bf df bd b8 16 90 86 4f 3f
       -0.00025261432564057426 0.0009620860632306125
000680 a5 8a 2e f3 7e 0c 5f 3f 3b ff cf 8c 2b 5a 30 3f
       0.001895069098033866 0.0002495151828156743
000690 3c 4a 90 94 bd 91 60 3f 1f 1d 0a 5e f8 d1 37 3f
       0.0020226195088153525 0.00036346734672361604
0006a0 c2 65 6e af 56 6c 27 bf 40 b8 80 72 cf ef 54 3f
       -0.00017870481653118995 0.0012778783657370202
0006b0 6e 0a 60 df af e1 51 3f 5e d6 ff 46 e6 85 0c 3f
       0.0010914056306325043 5.4403390890839175e-05
0006c0 35 3f 11 57 dc fa 6a 3f ea 96 c0 bb 7a f2 3d 3f
       0.003293447829982111 0.0004569577829463949
0006d0 a8 71 7f e2 25 45 31 3f 6e 0b c5 c2 45 b8 41 3f
       0.0002635209552843917 0.0005407658223151987
0006e0 c5 c9 32 c8 0c 50 40 3f 4c ed 1c 2f 99 d4 46 bf
       0.0004978239452582625 -0.000696730420009764
0006f0 4a af c7 de 7b 8c 43 bf 20 96 11 d8 5a ac 4d bf
       -0.0005965809664849411 -0.0009055560659702623
000700 f7 5a 32 a5 84 06 44 bf e2 ac ff 28 64 5c 06 3f
       -0.000611128586018277 4.265003838085383e-05
000710 86 a9 5b d2 04 60 47 3f ea 60 9f 94 44 40 21 3f
       0.0007133506339560981 0.00013161503949166788
000720 0d 51 5c 2a cf 83 51 bf 8b 32 6a 51 4b f4 39 3f
       -0.0010690234279922578 0.00039603079623232927
000730 ce 9a 60 21 5b b6 33 bf b8 97 68 23 a5 f1 43 bf
       -0.0003007862554817276 -0.0006086403216769487
000740 7e cf f2 98 eb 80 4f bf 5e ce 01 49 6b 39 37 bf
       -0.0009614134195516791 -0.0003543745924680981
000750 f8 c9 ae 53 0c c9 43 bf 26 37 ab 71 8e 46 40 3f
       -0.0006038007917282253 0.0004966922309337137
000760 58 1b 21 8a ea 9a 41 bf d2 4e 17 e0 6c a0 4c 3f
       -0.0005372662747128261 0.0008736163728663932
000770 d3 b5 eb 4c 9d 10 3e 3f 12 c3 75 28 c2 29 35 bf
       0.0004587539705614683 -0.0003229235666913226
000780 48 3c f1 be 21 64 06 3f b9 71 cc 8e 84 f8 1c 3f
       4.270771011560169e-05 0.00011051472729345966
000790 a1 df 26 e7 92 a6 5b bf 3a 70 79 0c 30 ad 30 bf
       -0.001687663516902284 -0.0002544634157624102
0007a0 5b 66 53 11 a5 35 4b 3f b3 d2 e0 d6 d7 8b 31 bf
       0.0008303695673490084 -0.00026773471370526296
0007b0 84 95 c1 84 a0 5a 1e 3f 00 c3 e3 16 85 2e 52 bf
       0.00011579136588720477 -0.0011097240163133182
0007c0 0f 50 89 ac 14 d3 54 3f 6b 49 88 7e d4 60 4b 3f
       0.001271028699325608 0.000835517651525825
0007d0 6d 31 25 02 6c ff 57 3f 25 7e 7a 56 eb 98 4a 3f
       0.0014647059220634598 0.0008116864309676881
0007e0 e5 5b a7 ae 82 f0 47 3f 40 fe 29 62 ac cd 28 3f
       0.0007305753800278507 0.000189235012914667
0007f0 4d 60 ad 0f 2e 19 41 3f a0 0b 9a 92 eb e3 5e bf
       0.0005218005092997386 -0.001885395099095112
