tests/twolayer_grad_check/b1.npy (npy, 1152 bytes, 1 tensors)

array f8 [128]
00000000: 0556 eaaf a576 e3be 1ea0 7a6f f834 b53e
00000010: 2c80 810c 3c53 d53e 66cf 41cc b458 e93e
00000020: 7241 e688 de73 e9be af35 2137 5c9a ef3e
00000030: 8dbf 484e dc69 b5be d45f 6bc0 783c f33e
00000040: 2a10 8b8b 7ef9 f13e db64 fe5a 01e3 f73e
00000050: b95f 3fa0 7233 d13e 89bd 8308 4bf5 f9be
00000060: ee82 d035 4e56 f3be dafa 7666 1cf6 e6be
00000070: dc93 41e3 a1e5 f33e 5739 0ea7 a465 003f
00000080: c5bc 6977 9545 f1be 30f5 426e 3b9c fabe
00000090: 6c95 2a58 7f24 f93e e80b 0565 303d 033f
000000a0: 24a6 fc66 afc3 d03e e37c 9402 1d5e d2be
000000b0: ea74 7216 e9ee e13e 4ce7 679c 5756 c2be
000000c0: de0a 0355 8b5c ee3e 8cb5 7802 d857 ba3e
000000d0: bfa7 8384 dd51 01bf 77f2 6f1a e137 07bf
000000e0: 0164 e05f bf82 ea3e 65a7 663e 7c08 003f
000000f0: 1996 d211 8a8e 08bf 4285 5d1e 60c3 d53e
00000100: 702c 8057 1e76 d2be 9226 1399 de21 c23e
00000110: 981f becc 4e0d c6be 8e25 a841 d8b3 e03e
00000120: f430 b601 7961 b2be ca3d c635 0ab4 febe
00000130: 2d47 525c 8f7c e03e ad23 7972 7804 02bf
00000140: 2403 1653 ac82 d6be ecac 78a2 1625 d63e
00000150: 4a28 ae07 ae34 e23e 92b8 0281 8bea e2be
00000160: c022 6b10 548f f23e 2c65 02b5 60f0 cbbe
00000170: 19ba 01a5 44c0 d13e f985 fe0f b758 dabe
00000180: 1875 af75 bd51 ea3e 06e4 68ee 4838 eb3e
00000190: 2271 9efb b9e4 f1be 4aab cf7a 7917 b3be
000001a0: 09a1 150e 63e2 f63e f09e 2ec3 4908 b93e
000001b0: dd44 6cc8 0336 b2be 9db3 bd60 de02 bc3e
000001c0: 8ee2 a040 f4b4 f23e 34a1 49f1 b868 e1be
000001d0: c952 ec42 14e2 cfbe 4c3e 9fd0 5fa1 003f
000001e0: 204e 5c10 a138 dd3e 95b2 b76d 2f66 f03e
000001f0: 6814 4e03 1273 d3be 9e76 ad76 5b96 043f
00000200: fb82 c62e b771 023f 9849 4f10 5b22 e93e
00000210: 435d d777 8e7b 03bf f9c0 c93a 297a d1be
00000220: ec5f fe79 0efa d03e 0948 4514 54d6 cc3e
00000230: c6f0 b80d cd92 f13e 39dc 9c4e a262 f2be
00000240: 081b bf20 847c d7be f9df 3775 820d f23e
00000250: 30c8 d652 e891 d23e c8f6 f839 6dd8 edbe
00000260: 6e9c 37c1 971c e3be a087 c780 0da4 983e
00000270: 2b5a f03a 8648 fe3e c928 89e7 f0d7 f5be
00000280: 7dd0 ef26 8bb8 ebbe de28 e00a 0972 e23e
00000290: aff0 e564 d1b3 033f 7c66 5142 29fb f9be
000002a0: f8a5 5683 8c05 c53e ddcc 28de 639a da3e
000002b0: 7aab ef9e b524 eb3e 491e e324 161e d43e
000002c0: 2e1e 7efb 8e24 b83e 1889 b448 fd60 76be
000002d0: b83c 9924 f2ae e53e 7482 c590 cb63 d2be
000002e0: 5ea8 a359 ccf9 05bf a339 371a 2bb2 033f
000002f0: df46 6366 1c5d 00bf 5988 9306 b00b e23e
00000300: c388 47cb 7b86 f6be 0052 6fbe e647 eb3e
00000310: 019c 3637 b092 c93e 240a fd5a d4cf d73e
00000320: 2ae3 7c38 ef37 febe ca6d 842d 1582 e9be
00000330: ed46 a7d8 db96 d9be 987d 9fbd 44c8 bebe
00000340: 3dea 288a c552 d03e 00d2 279b e496 76be
00000350: c809 d074 68ff e2be 7070 5ce0 2aa3 db3e
00000360: 7eb8 cc16 7158 71be 3fa2 76b8 a0e9 03bf
00000370: 5759 bf99 1dbc f33e fc90 eb1a 86da cbbe
00000380: 738b 486d 741c 013f 1416 6c30 46a9 e1be
00000390: f758 ff28 4fc6 f03e 6031 8e5e 57ba c83e
000003a0: 9561 9768 c73e edbe 501c c035 ea81 f2be
000003b0: 340b d856 5973 a1be 3680 acc6 d7ba d03e
000003c0: fa08 4a9b 74b5 a2be f03f ccad 5dac c73e
000003d0: 437b 08d2 a8f6 f13e 46e4 5cd1 5c18 e9be
000003e0: e5ce 9434 8c8f 043f e6a2 cdf2 e708 d93e
000003f0: 2eb8 1ec5 8754 eebe 8ab8 dda8 ec79 db3e
-9.280903666290642e-06 1.2640306844922325e-06 5.084308391273311e-06 1.208615720591612e-05 -1.2136752300746028e-05 1.5069470212259983e-05 -1.2763451248225011e-06 1.834508659723218e-05
1.7141902136655483e-05 2.2780169899404338e-05 4.101030302870674e-06 -2.4755645910921136e-05 -1.8441325085774328e-05 -1.0948834826216546e-05 1.8975259266435524e-05 3.127487878550283e-05
-1.6471683432714408e-05 -2.5377542343764717e-05 2.3977821465811217e-05 3.669551790832349e-05 3.9969432774982764e-06 -4.379184283891826e-06 8.551237171079051e-06 -2.185973446031206e-06
1.4477491874114451e-05 1.5701734897942294e-06 -3.303487079782353e-05 -4.428535185494337e-05 1.2641302415560345e-05 3.058079873892345e-05 -4.6838367987061566e-05 5.188747740665386e-06
-4.401540870456388e-06 2.1615389377047285e-06 -2.6288013028098304e-06 7.964381485886151e-06 -1.095578233331496e-06 -2.9280930321782553e-05 7.861405615625431e-06 -3.4365583186763686e-05
-5.366907588012075e-06 5.279750019886202e-06 8.681192630328447e-06 -9.019942837387271e-06 1.7700077502155352e-05 -3.3305854359565235e-06 4.232179506498509e-06 -6.281505420620189e-06
1.2550018871177726e-05 1.2979442044801583e-05 -1.7064535974152123e-05 -1.1379538407084319e-06 2.1824192008607977e-05 1.4920458510733876e-06 -1.0854599012437155e-06 1.6695979665151907e-06
1.7840244290053815e-05 -8.301292418980666e-06 -3.8007642823113358e-06 3.1719910182578624e-05 6.966878805209363e-06 1.5639458849680562e-05 -4.637120629595854e-06 3.926722168644019e-05
3.517952231680239e-05 1.1984921465844897e-05 -3.716019180515864e-05 -4.166887191389901e-06 4.047580574616222e-06 3.437664562047121e-06 1.6759339685132995e-05 -1.7533578023445405e-05
-5.599591997146635e-06 1.7216464881258918e-05 4.427421385443496e-06 -1.423140366718245e-05 -9.11316423120157e-06 3.671769952790289e-07 2.8880403700604566e-05 -2.0831603679640613e-05
-1.3218342443700949e-05 8.79547618739092e-06 3.757937212165004e-05 -2.4777506173334702e-05 2.505978978735399e-06 6.342670050107926e-06 1.2942979962423643e-05 4.7963918190018385e-06
1.4390234195099367e-06 -8.336776795685827e-08 1.0339442400168728e-05 -4.38447592573996e-06 -4.1915463229916876e-05 3.756708181478225e-05 -3.1211308667911926e-05 8.604838699747553e-06
-2.1481825301602303e-05 1.3008529959814864e-05 3.048539321165705e-06 5.6771836368118895e-06 -2.8818601577304506e-05 -1.2163226913267529e-05 -6.100962659920498e-06 -1.8347679913084752e-06
3.891784361937655e-06 -8.415216860136978e-08 -9.058803380317194e-06 6.5892631988772715e-06 -6.461693198282828e-08 -3.798028688645595e-05 1.8820597332902308e-05 -3.320408914363647e-06
3.263693148294099e-05 -8.421529412948186e-06 1.5997548473333793e-05 2.9477948725929146e-06 -1.3945212475372635e-05 -1.7650108347335846e-05 -5.200678693809396e-07 3.988708253271957e-06
-5.575660027709252e-07 2.822077802007432e-06 1.7131341453087477e-05 -1.1966307777210493e-05 3.921648619567372e-05 5.9687588816823746e-06 -1.4462564795394367e-05 6.550852630000706e-06
