tests/twolayer_grad_check/w2.npy (npy, 10368 bytes, 1 tensors)

array f8 [128, 10]
00000000: f382 1e1f 8cef 663f db9d d945 f265 94bf
00000010: 3d40 7f4b 61da 683f 535d fab9 bbff 74bf
00000020: c140 541d 08e1 673f 5c65 ba71 7bd9 71bf
00000030: 489c 6f63 ab3a 72bf 8455 21b9 cd5f 74bf
00000040: 2620 e4e0 cb70 6b3f 7a46 d02a 665f 9b3f
00000050: 0f73 336c b880 673f 56ca 7849 2e7d 94bf
00000060: f019 749f 6c6b 693f 9649 497e 6448 75bf
00000070: bb53 cb3e f3b9 673f 345d ffca 1962 72bf
00000080: a72c 7d45 dfa3 72bf c24d fd89 c6cb 73bf
00000090: 38dc c011 9a56 6a3f 061b 2304 21a4 9b3f
000000a0: 6300 eea4 9401 683f a37b c3d0 dc92 94bf
000000b0: 3221 2abd 9a60 693f d23f 051a b0e2 74bf
000000c0: 21e2 df14 6b19 673f d849 a482 d755 72bf
000000d0: db43 b9a4 e7a6 72bf 1b2c 3101 4b7b 73bf
000000e0: eea1 0751 1215 6a3f 5385 68c8 7597 9b3f
000000f0: 859d 95ae 9a66 6a3f d87e d576 84b8 94bf
00000100: 6d4a 16bb ada4 693f 3cdd 2188 0aeb 74bf
00000110: 8f0c 6795 2676 663f b1ca e56f e8f7 71bf
00000120: b835 2fc4 d613 73bf 6ccb 254d c642 73bf
00000130: fcd3 9742 173c 6a3f 0f50 f7b0 376f 9b3f
00000140: 2073 ecbc f89c 663f 9d67 8c08 a19d 94bf
00000150: 4c85 1f5f 48df 683f f71d 5e78 43d3 74bf
00000160: c254 31f2 00b3 683f 5f65 b6e7 4533 72bf
00000170: bb9e 5ecb e22d 73bf 000d 3e60 0ad3 72bf
00000180: 7c05 6843 a058 693f 0609 4461 82ae 9b3f
00000190: d0b8 d7a0 1690 673f 41f8 3fa9 52b4 94bf
000001a0: 4853 7e99 ef1b 693f 29bd 766c c9dd 74bf
000001b0: ea06 5a91 bc64 673f ba49 a06d 911d 72bf
000001c0: aa30 7add 4435 73bf f12e cbd6 0108 73bf
000001d0: 08d4 4a1b 71f9 6a3f ffb4 f78f 34a1 9b3f
000001e0: e162 cc00 5cdd 673f 24ba 0c71 7eab 94bf
000001f0: 6387 d119 6d35 693f a4fd 11ab 1d9f 74bf
00000200: 4bc6 d0c0 5817 683f 2953 8068 0712 72bf
00000210: 972a 9ce2 1422 72bf 4ef4 2885 f84f 74bf
00000220: 3cb9 3f12 8436 6a3f d6c8 2c52 3688 9b3f
00000230: 49e3 5faf 0cd8 673f aee4 7602 a197 94bf
00000240: 3b99 c9d5 60fa 683f 157d 0ab3 dd47 74bf
00000250: 6bc5 01b1 44c4 673f bd19 926d c8d0 71bf
00000260: 5955 0263 04d9 72bf 243a 17a0 4d2e 74bf
00000270: b009 947f 195d 6a3f ce84 ac94 2581 9b3f
00000280: 50f6 8e50 86a4 683f cb2c fb1b fbee 94bf
00000290: b1b0 81d9 f6b4 693f f7d7 59fe f28e 74bf
000002a0: 53ec 3f62 8dfe 673f 7bab e98e 5d0b 72bf
000002b0: 827e 0025 27b0 72bf d104 5f1e 2baf 73bf
000002c0: 54c2 dbb5 bb37 6a3f c763 de07 6b9b 9b3f
000002d0: 6fda 6979 807a 6a3f 2076 6755 90e9 94bf
000002e0: 5b14 a5e0 72e3 693f f164 164f 5aa1 74bf
000002f0: 83a2 499c f61a 663f 930e b0ec 0509 72bf
00000300: 9d6d 4a8b 84a8 72bf adcb 68fd 8ab1 73bf
00000310: 6a90 7ab6 e734 6a3f 1b7d eb10 f294 9b3f
00000320: 0a22 2dad 61c4 663f d493 de5e 1ca1 94bf
00000330: ac5c e3f9 e1e0 6a3f 9905 b4ea f2b4 74bf
00000340: d34f 6020 dab7 663f 9d3f 0e3c f163 72bf
00000350: 3762 2d8e 2ccc 72bf 02f7 2aa2 a4bf 73bf
00000360: 1e10 e62d 931a 6b3f 965f fa95 539b 9b3f
00000370: 59d8 c956 d998 693f e786 13d3 20b2 94bf
00000380: ae5a 19c7 0c0c 6a3f 9e8d 58e7 7e20 74bf
00000390: ed24 d9b5 1505 673f 2707 0f9a d057 72bf
000003a0: 1e1b 6846 3cbc 72bf 1714 39cb af25 74bf
000003b0: a277 bda3 8024 693f ec7d e628 e08e 9b3f
000003c0: 4dc2 d938 5314 683f 17d5 97ed c872 94bf
000003d0: 45fd 7e86 0900 693f bd61 3c04 248a 74bf
000003e0: de0d 9b9c 811a 673f c2d2 18f9 0cdd 71bf
000003f0: fefb 4fa5 9bdd 72bf 49a5 a7ed 54ec 73bf
00000400: de17 6a7a 11e4 693f dc4d df56 b37c 9b3f
00000410: 0943 1681 c1a1 673f 0992 2742 97a8 94bf
00000420: cb2c 6342 1ba9 693f 7c7a 6617 9562 75bf
00000430: 1436 30c2 c7d4 673f 7dca 99bb 5429 72bf
00000440: 10de b59b b96c 72bf ab85 9253 4420 74bf
00000450: 1ab7 06c0 43bb 6a3f 94b0 032a 74b3 9b3f
00000460: 9c42 ab23 1516 693f 4497 9cc9 14b0 94bf
00000470: ec25 227f 669d 683f f4b6 c99b 0e17 75bf
00000480: 716e a39e 7f0c 683f b520 4db8 b3f8 71bf
00000490: 4e8c fbe1 7759 72bf e729 627d 771b 74bf
000004a0: 3c52 a52c 65ae 6a3f 97f5 b628 7583 9b3f
000004b0: 4f2f f2e8 3ee0 663f 7f81 1529 4495 94bf
000004c0: 8483 c363 64bd 683f 20dd cefb ff82 75bf
000004d0: 7819 7762 4346 693f 1daf 77ed 3431 72bf
000004e0: 9b43 3d02 28ca 72bf ce99 1009 1557 73bf
000004f0: caea 1f92 bbbc 693f 0605 115e 8cb6 9b3f
00000500: fcd4 279f a9ba 693f c24c 3034 b0e0 94bf
00000510: 2021 4533 2584 683f 2a0e 754f 4689 74bf
00000520: e678 6890 f639 673f 31ef 7736 f1d5 71bf
00000530: 40d5 2b5f cf71 72bf f47f 2d59 e992 73bf
00000540: f65b 81cd 5ef0 693f 0208 b7bd 878c 9b3f
00000550: ea9a c12a 5340 663f 0803 21cd 0346 94bf
00000560: fd31 e17b fe91 693f 783a 5fff ac95 73bf
00000570: 20f0 ebee 7e0c 673f 79b1 148d 6e00 72bf
00000580: acdc 931a cf95 72bf 16c6 fa67 7708 75bf
00000590: 167b dcc1 22d5 6a3f b43f f4e5 9d5c 9b3f
000005a0: 87c2 be62 ab53 683f 2830 2277 dfc8 94bf
000005b0: f6e5 9af5 7692 683f d6e8 3d08 4626 74bf
000005c0: de6d 8e8a d077 673f cd95 88fe be17 72bf
000005d0: add1 e8ad b07b 72bf 026b 0b36 9272 73bf
000005e0: b053 1b3d 8bb1 693f ba71 d0ad 0192 9b3f
000005f0: a215 59d1 bdf4 673f 2c73 483b 83b8 94bf
00000600: a671 8e0a d235 683f 4bf2 5e9f 2271 74bf
00000610: 9aac 94a0 5ded 683f 56d9 a761 ed93 71bf
00000620: 7fca d0c8 c52c 72bf 0cef 0d59 50de 74bf
00000630: dcf1 4fd7 6e5d 6b3f c04f 8839 e16d 9b3f
00000640: 8177 7a5b 3156 693f a2b8 8ff5 2fb9 94bf
00000650: 3138 d7f9 6987 693f 5637 6c06 a068 75bf
00000660: 10d8 6138 2ec3 673f 7dd8 e687 46dc 71bf
00000670: a70c 50ed ae3d 72bf 5e9b 0159 4a72 74bf
00000680: 1871 3deb 8bbc 6a3f 7cc7 9a3b bd8a 9b3f
00000690: 4cde 2dd2 8291 693f dafa 79be bf93 94bf
000006a0: 66cb a156 a69c 693f a5cc ccb7 7df2 74bf
000006b0: 7373 0d99 1c2e 673f e28a 559b 4966 72bf
000006c0: 5c6f e96b 2902 73bf 4854 d973 9b00 74bf
000006d0: 6a79 e705 22bb 6a3f d6ae 3ad2 b587 9b3f
000006e0: 16d3 9b9e 4178 663f 47a9 e868 bdbe 94bf
000006f0: 566f bdc8 4e69 683f 30f6 dfe0 245c 75bf
00000700: 7071 43b6 06a4 693f 0937 07d9 1f18 72bf
00000710: 3023 562b b815 73bf 3c33 094b a2c4 72bf
00000720: bcc3 d562 7086 693f 40fb eb44 e4d0 9b3f
00000730: 5895 fbcc 1ff0 663f 0265 2bc6 e3c8 94bf
00000740: 1182 dc10 0715 693f a211 e43f 1a1c 75bf
00000750: e9fa 0e45 9c25 693f 69e0 e67b 4c23 72bf
00000760: b3a3 33dd 6c2e 72bf 7099 50be aa40 73bf
00000770: 7e71 9020 80f6 683f 5240 90f3 5ab0 9b3f
00000780: 2aec e201 59e4 673f 62ef 4d7b 5e9d 94bf
00000790: 6695 df1b 80bb 683f 8c54 b1c9 96c6 74bf
000007a0: bfaa c209 2344 673f 63be 5737 7b2c 72bf
000007b0: a2df 9bd5 5443 72bf f1b7 45b1 396d 73bf
000007c0: 5612 8d9f 80e2 693f 3052 6604 778d 9b3f
000007d0: 0f17 d383 3215 683f a604 5e40 c1a7 94bf
000007e0: 7cd1 0f18 6406 693f 0dec 7528 e304 74bf
000007f0: df99 4c9e 8028 673f f037 c913 b7e4 71bf
0.002799771952553315 -0.01992014457064593 0.0030338192263812667 -0.0051266987863053 0.0029149206626542805 -0.00435779781732867 -0.004450482831976528 -0.004974177938568917
0.0033496839524822684 0.026731106150754226 0.002868995857723162 -0.02000877688824184 0.00310298171428091 -0.005195992042518324 0.0028962851414271163 -0.004488087419267917
-0.004550811914508269 -0.004833007376720601 0.003215123097131147 0.02699328983069462 0.002930441208661748 -0.020091486207885045 0.003097822403393868 -0.005098998925248526
0.0028197375713683447 -0.0044763964053963975 -0.004553704125627579 -0.0047562532300373895 0.0031838758225044483 0.026944961888266516 0.003222753632758648 -0.02023512816719983
0.003130282705293744 -0.005106965198243881 0.0027418855272301544 -0.004386814076826327 -0.004657591753994543 -0.004702353110007756 0.0032024816798590355 0.02679144876113076
0.002760396782277033 -0.020132557055240963 0.0030361569888418868 -0.005084289126791478 0.0030150431135021758 -0.0044434290570277415 -0.004682432094263052 -0.004595795184175744
0.0030940179960913788 0.027032887636786483 0.002876323886758937 -0.020219127254670125 0.003065078704774047 -0.005094324885632142 0.0028556521381809434 -0.004422729567539136
-0.004689473156428795 -0.0046463081204810444 0.0032927712548720435 0.02698213700016527 0.0029131695686256264 -0.020185447359091793 0.0030772333980601404 -0.005034557239127411
0.0029408200703293966 -0.004411724985421008 -0.0044270339801736535 -0.004959078580722821 0.003199823333481037 0.026886795774040483 0.0029106376414315444 -0.02010966851751011
0.003049077158993855 -0.004951349271009838 0.0029012052182727974 -0.0043495015353358065 -0.0046014949185935955 -0.004926970695534414 0.003218221475095727 0.02685984344418984
0.0030081389745351475 -0.020442889769395827 0.003138048294252093 -0.005019139474475401 0.0029289971735102865 -0.004405370199132781 -0.004562523754458094 -0.004805725509812579
0.0032004038065383354 0.02696006045843882 0.0032322415602792846 -0.02042222520127812 0.0031602138234654692 -0.00503669049194254 0.002698403988962207 -0.00440313638955882
-0.004555242300422616 -0.0048079900066565874 0.0031990552559638024 0.026935369761187915 0.002779188894610711 -0.020145839014407432 0.0032810605617715396 -0.0050553788125865745
0.0027732143671616943 -0.004489843676210995 -0.004589246792271732 -0.004821436976895079 0.0033085703464070934 0.026959711102420757 0.003124641886013396 -0.020210755236695823
0.0031795739712764037 -0.00491380283122869 0.002810041811959088 -0.004478278017758608 -0.0045740465634540855 -0.004918753332792589 0.00306916356014049 0.026912214752540395
0.0029393792563541577 -0.019969119550258343 0.0030517755548939173 -0.005014553727754775 0.0028202563742938244 -0.004361200977247294 -0.004605873099534639 -0.0048640553963904066
0.0031605092402200293 0.02684288232542352 0.002884748399715757 -0.02017437306666817 0.003132394066687282 -0.005220968616781559 0.0029090787443297825 -0.004433947551307879
-0.0044982195207619174 -0.004913584614003079 0.0032631228679837034 0.027051749290806074 0.0030622876050546265 -0.020202946477318365 0.0030047418486602775 -0.0051489420553545336
0.002935647256078693 -0.004387571364368782 -0.004479854862185452 -0.0049090068406578485 0.003256986242528263 0.026868658647563128 0.002792475577342225 -0.020100655562943267
0.003019996713291952 -0.0052518843994484865 0.0030852619272280744 -0.004441458462206585 -0.004587322506112291 -0.004721719903534495 0.003141752576082045 0.02706355404030083
0.0031407654689653546 -0.020388367829650596 0.002992699295791948 -0.005013727807923677 0.0028352561669314656 -0.004354421841977361 -0.004503068967769253 -0.004778777615541675
0.003166375314360699 0.026903267816813077 0.002716219363765195 -0.019798335452153842 0.0031213732136505788 -0.004781413814227357 0.0028135756650709137 -0.004394943084929153
-0.00453740024499109 -0.005135027342178874 0.0032754591801586004 0.02672049251583504 0.0029695842149169457 -0.020297519346556353 0.002999527304237355 -0.0049193130142788
0.002864749247647443 -0.004417177268384487 -0.004512491372726063 -0.004747935425906348 0.003136417341787788 0.026924158319262516 0.0029243190172418424 -0.020235109799716586
0.0029553511016741805 -0.0049907066767756565 0.003042872300871813 -0.004291465064389341 -0.004437229724362112 -0.005094827517378563 0.00334045075078236 0.026786345612052065
0.00309285774331064 -0.020237683642272082 0.003116328224428443 -0.0052267313938168716 0.002900686525260994 -0.0043604617225608796 -0.004453357037166906 -0.004991808338764196
0.00326373413001425 0.026896435511566605 0.003121142873563609 -0.02009486770702549 0.0031264542386052916 -0.005114070020499605 0.002829604964445337 -0.004492080236874614
-0.004640733530859222 -0.004883391605820249 0.003263060046477741 0.026884880977987212 0.0027428895599491783 -0.020258864906432163 0.002979902148508555 -0.005214828544919878
0.0031299716084573423 -0.004417538075768731 -0.00465938511968815 -0.004582056004960585 0.003115863327075334 0.027164046007779108 0.002800047026414159 -0.020297583551699645
0.0030617845540208484 -0.005153753793142009 0.0030696918624636316 -0.00442819477614629 -0.00443880581881555 -0.004700343100046175 0.0030472280964330403 0.027039929500517985
0.0029165018487140775 -0.020131565357118027 0.0030190946699685693 -0.005072201743208226 0.0028401073778544224 -0.004436951935971575 -0.00445874346200262 -0.004742837296687328
0.003159762589719765 0.02690683330873095 0.0029397951717297153 -0.02017118411413734 0.0030548052750367077 -0.004887473426943079 0.0028269302441856626 -0.004368510385189581
